fantasyportrait/models/face_det.onnx (onnx, 370619 bytes, 347 tensors)

backbone.conv1.0.weight f4 [12, 3, 3, 3]
000000 04 58 fe bc 9b 70 49 be 47 05 e6 bd 29 55 59 3e
       -0.031047828 -0.19671862 -0.11231475 0.21223892
000010 e0 a7 a6 3e 6f a3 8a 3e a6 5c ce bc 69 ae 01 3f
       0.32549953 0.27077815 -0.025190663 0.50656754
000020 58 70 f6 3e 32 b1 8a 3b ef 5b d4 3e 3f 68 47 3e
       0.48132586 0.004232549 0.4147639 0.1947336
000030 ac 9b b9 be a2 5a 0f bf b6 22 d5 be c0 f1 9e 3d
       -0.3625158 -0.5599767 -0.41628045 0.07760954
000040 2a d1 9d bf 5a 13 88 bf e2 be 53 3b 16 79 51 be
       -1.2329457 -1.0630906 0.003230982 -0.20456347
000050 55 c6 c6 bd d8 4c 0e 3e 42 41 6f 3e c6 56 07 3e
       -0.097057976 0.13896501 0.23364738 0.13216695
000060 5b 8c 22 bd fb cd 44 3f a2 df 1d 3f a1 6f cc bd
       -0.039684635 0.768768 0.6166936 -0.09982229
000070 0b 7b fe 3d 4f a2 5b bd 92 56 af ba fd 2c 85 3e
       0.12425812 -0.053621586 -0.001337724 0.26010886
000080 89 4f 1b be d8 55 9c bd 6f 11 5b 3c d4 27 32 be
       -0.15167059 -0.07633561 0.013370856 -0.17398006
000090 d7 c2 cb bd a1 8a 71 3e 9a e9 81 be 62 e9 6b 3e
       -0.09949272 0.23588039 -0.25373536 0.23038247
0000a0 29 e0 a6 3e 90 78 5b be 29 27 b1 3d 46 e1 31 be
       0.32592896 -0.2143271 0.08650047 -0.17371091
0000b0 d4 81 94 be 41 2a 9c 3e b6 c9 0c 3f 8f 04 9b be
       -0.290053 0.30500987 0.54995286 -0.30276915
0000c0 47 37 22 3f a1 f2 8e 3e f5 15 1d bf 6a 07 d6 3e
       0.63365597 0.27919486 -0.6136163 0.4180253
0000d0 a7 cf cd be 84 b8 31 bf 1d 2c c3 bd 8c c3 03 bd
       -0.4019749 -0.69422174 -0.09529898 -0.03216891
0000e0 ff b0 e7 bd ba 35 b5 3d 42 20 6f 3d c4 61 8b 3d
       -0.11313056 0.08848138 0.058380373 0.06805757
0000f0 bc 3c 25 bc 01 33 49 bd 7e e1 d2 bb 0a eb b4 3d
       -0.010085281 -0.049120907 -0.006435572 0.08833893
000100 ca 0e 46 3e ec e5 cf 3d 99 44 7a be a0 6b b3 be
       0.19341579 0.10151276 -0.2444023 -0.3504305
000110 b2 d6 86 be 01 43 fa 3d 18 72 4b 3e 1d 88 26 3e
       -0.26335675 0.12219811 0.19867742 0.1626286
000120 8e 93 1a 3f 35 e4 2b 3f 62 2f 24 3f 51 7b 2c bf
       0.603814 0.6714509 0.641348 -0.67375666
000130 86 cc 4a bf 22 cb 22 bf 72 d5 a3 3d 28 eb 1b 3e
       -0.7921833 -0.63591206 0.07999696 0.15226424
000140 c2 71 ad 3c 06 c4 71 be 9c 42 84 be a3 56 0c be
       0.021172408 -0.23609933 -0.2583207 -0.13704924
000150 d6 f6 31 be f4 96 07 bf bf 5d 0b be 12 ec 86 3d
       -0.17379317 -0.5296471 -0.1360998 0.065879956
000160 36 1b 18 be cb b4 af 3d 91 aa ca 3e a8 27 30 3f
       -0.1485413 0.085794054 0.39583257 0.6881051
000170 c0 f3 df 3e 7b 89 c0 3e 0f c2 04 3f c1 fa c8 3e
       0.43740654 0.3760489 0.5185861 0.3925381
000180 89 7c 0b 3e ae 8c 6d 3e 3d 7c 0e 3e 2d 72 a6 be
       0.13621725 0.23198196 0.1391458 -0.32508984
000190 59 a8 b9 3d e3 91 e9 be 84 e1 64 be 34 15 1a bd
       0.09065313 -0.45619115 -0.22351652 -0.037617877
0001a0 6c 6a 88 be e6 69 4d be 26 e8 2c be 91 c4 61 be
       -0.26643693 -0.20059928 -0.16885433 -0.2204764
0001b0 1f e8 b7 3e 55 75 b1 3e cc 58 31 3e 5b 33 99 3e
       0.35919282 0.3465983 0.1731903 0.29921994
0001c0 84 f5 f3 3e a3 a9 50 3e 8b ba 8a 3e fb 66 5e 3e
       0.4764825 0.20377211 0.27095446 0.21718971
0001d0 2d bb 56 3e 37 88 84 3c 87 a2 f8 bd b0 e4 23 bd
       0.2096984 0.016178234 -0.12140375 -0.040013015
0001e0 c8 38 00 be 6d 4c 47 bd ec 67 36 be 4f 04 a0 3c
       -0.1252166 -0.04865687 -0.1781308 0.019533304
0001f0 6e f2 c0 3c d9 d5 72 bd f6 84 23 be 42 96 d3 be
       0.0235531 -0.059285972 -0.1596869 -0.41325575
000200 d2 fc 06 3e 94 2d 80 be 6e c1 81 be af b5 cb bd
       0.13182381 -0.25034773 -0.25342888 -0.09946763
000210 5c a6 c5 be 77 a5 69 be 21 86 80 be bc ad 3f bc
       -0.38603485 -0.22817026 -0.25102332 -0.011699136
000220 28 43 af 3d d7 c2 81 be e6 e2 e6 bd 2e 95 95 3e
       0.08557731 -0.25343964 -0.11273746 0.29215378
000230 88 cb d5 bd bf 32 3d bd 97 a3 c6 3d af 35 03 be
       -0.10439211 -0.046190973 0.09699171 -0.12813447
000240 49 2c 87 be 00 12 75 3e 3c 9f 0e be fe f4 7c be
       -0.26400974 0.23932648 -0.1392793 -0.24702832
000250 96 48 cf 3e 0c 87 0a 3e a3 09 a4 be 85 be bf bd
       0.40485066 0.13528079 -0.32038602 -0.093625106
000260 2a ce 32 3d c6 38 da be d7 3f fb 3e 09 71 af 3e
       0.043653645 -0.4262144 0.49072143 0.34265926
000270 e1 d2 31 bf 05 e5 85 3e 80 52 e0 3e b1 7b 16 bf
       -0.694624 0.2615129 0.43812943 -0.5878249
000280 9d 8f 25 be df 82 00 3f d4 69 1e be 9a 99 f1 bd
       -0.16168065 0.50199693 -0.15470058 -0.11796875
000290 90 fc 15 be e7 e0 9c bd 04 2b 2f be 67 57 a1 bd
       -0.14647126 -0.07660084 -0.17106253 -0.07877999
0002a0 b2 d3 34 be b8 70 a7 be 49 c0 65 be e7 9c bc 3d
       -0.1765888 -0.32703185 -0.22436632 0.09209614
0002b0 56 13 c0 3d c0 41 ca 3d 90 be 69 3c 59 c8 8f 3d
       0.09378688 0.09875822 0.014266625 0.07020635
0002c0 f0 22 58 3c e6 73 1a 3e 7a d0 52 3e 01 d6 14 3e
       0.0131919235 0.15083274 0.2058734 0.14534761
0002d0 d2 db 0f be fe 5b a8 bd 8d a8 e3 bd 6a 3e dd bd
       -0.14048699 -0.08220671 -0.11116133 -0.1080292
0002e0 19 ff 05 3d 4a d3 c8 bd 3b b7 2e be a1 64 90 3c
       0.032713983 -0.09805925 -0.17062084 0.017626109
0002f0 0b 60 04 be f2 8a 0f bd 5d 3d 7a bd ff d8 59 bc
       -0.12927262 -0.035044618 -0.061093677 -0.013296365
000300 ef 66 85 3d 82 57 4e 3c 55 58 7e 3d 2f 62 77 3d
       0.06513774 0.012594106 0.06209596 0.06039637
000310 fd 6e 42 bd 33 a8 68 bb 1c 35 0c bc db a7 2d bd
       -0.047469128 -0.0035500645 -0.008557584 -0.042396408
000320 0d a0 0a bd 5e 24 a9 bd 58 22 06 be e8 f4 ba bd
       -0.033844043 -0.082588896 -0.13099039 -0.091287434
000330 84 1e 27 be 3f 23 97 be dc 68 a2 be f6 c4 1b 3e
       -0.16320235 -0.29519078 -0.31720626 0.15211853
000340 4d ab 36 3e e3 df 33 3e 1e 34 a7 3d cb 4b 18 3e
       0.17838784 0.17565875 0.081642374 0.14872663
000350 5c 72 f4 3d 87 3e 60 3e 09 c7 cc 3e 4d 77 f0 3e
       0.11935875 0.21898852 0.39995602 0.4696602
000360 e9 d4 38 bc d6 74 48 be ab b4 cd 3d 53 52 04 3e
       -0.0112812305 -0.1957582 0.10044225 0.12922029
000370 73 af b6 be ce 9d 43 3e 3e 50 bc 3c 0d d8 37 be
       -0.35680732 0.19103166 0.022987481 -0.1795351
000380 84 32 72 3d d1 16 08 3d 59 42 ac be 40 38 30 3d
       0.059130207 0.033224884 -0.3364437 0.043022394
000390 f8 54 c1 3e 59 10 ab be da 19 da 3e c4 de 26 3d
       0.3776014 -0.3341091 0.42597848 0.04073979
0003a0 4d 7f da be 12 86 01 3e 26 37 89 3e 13 3a a8 be
       -0.42675248 0.126488 0.26799887 -0.32856807
0003b0 01 9a 56 3e de 95 b5 3e 60 19 39 bf b3 5e 9d 3e
       0.20957185 0.35465902 -0.72304344 0.30736312
0003c0 0d 48 a9 3e 70 2f 20 bf 82 bd a3 3e f1 d9 a9 bc
       0.33062783 -0.62572384 0.3198052 -0.020733805
0003d0 ea 31 28 3d e1 eb f7 bd 1f 09 5e 3d 81 88 43 3e
       0.041063227 -0.12105537 0.054207917 0.19095041
0003e0 b8 05 64 3b 2e 15 85 bd 9d b0 b7 3c 86 89 c2 bd
       0.0034793448 -0.0649818 0.022423083 -0.09498887
0003f0 2f 54 5c bd 3b e4 7d be 76 71 cc be eb b1 8f 3e
       -0.05379122 -0.24794094 -0.39930314 0.28065428

backbone.conv1.1.bias f4 [12]
000000 e0 f9 c2 3d e0 cd 29 3e 0a 05 09 3d f1 81 03 3f
       0.09520316 0.16582441 0.03345207 0.5137015
000010 f8 df 8c 3e 9c 16 8d 3e b1 a5 70 3f 08 88 14 3f
       0.27514625 0.27556312 0.94002825 0.5802007
000020 3d 8d d5 3d b1 e6 07 3e 01 f7 f3 3d 49 33 bf 3c
       0.1042733 0.13271596 0.11912347 0.023339884

backbone.conv1.1.running_mean f4 [12]
000000 e9 cb 85 3e e6 ac be 3d b1 b0 83 3c b6 dd a4 be
       0.26132134 0.093103215 0.016075464 -0.32200402
000010 b1 97 90 3e c5 7d b8 3d 0e a6 0a 3f b6 5d d3 be
       0.2824073 0.09008364 0.5415963 -0.41282433
000020 50 ef ac 3d f4 c1 8d 3d ec 74 e0 3c 56 47 d7 bc
       0.08444083 0.06921759 0.027399503 -0.026279133

backbone.conv1.1.running_var f4 [12]
000000 3c ec 29 3f 7f b6 99 3f 7c 3b fa 3e 89 cd 58 3f
       0.6637609 1.2008818 0.48873508 0.8468862
000010 82 99 d3 3f 1b ea 97 3f 72 de 79 40 da fa 04 40
       1.6531222 1.1868318 3.904202 2.0778108
000020 bd 50 3f 3f c2 08 96 3f 1d 34 93 3f 3d 01 66 3f
       0.7473257 1.1721423 1.1500279 0.8984564

backbone.conv1.1.weight f4 [12]
000000 99 e2 e2 3e e8 a5 a4 3e 9c 8c 99 3e d3 2a ac 3e
       0.44313505 0.32157826 0.2999009 0.33626422
000010 32 66 c6 3e 09 df b3 3e 93 6a da 3e 8f 2e dd 3e
       0.38749844 0.351311 0.42659435 0.43199584
000020 11 db 9c 3e 6c 05 83 3e bd a9 a8 3e f3 b2 ab 3e
       0.30635884 0.25590074 0.32942 0.33534965

backbone.stage2.0.branch1.0.weight f4 [12, 1, 3, 3]
000000 35 29 45 bd 96 c4 0c bf c6 2f a3 be 52 48 0b 3b
       -0.048135 -0.54987466 -0.31872386 0.0021252823
000010 0d 99 e1 bc ac 86 d3 bc f5 df 07 3e d4 f6 dd 3e
       -0.0275388 -0.025821052 0.13269027 0.43352377
000020 39 b5 e4 3e c2 54 9c bc 76 1b bd 3d 20 8f ec 3d
       0.44669512 -0.019083384 0.092337534 0.115507364
000030 ca 61 d0 3d 88 ad 9c 3e ec c5 4b 3e 23 63 c2 3d
       0.10174902 0.30601144 0.1989972 0.09491565
000040 3c d1 32 3e f4 9a dc 3b 11 3d 29 bc c8 0a a4 3d
       0.17462629 0.006732339 -0.010329501 0.08009869
000050 7c ad 76 3d 72 52 bb 3c 33 71 92 3e 9a 55 18 3e
       0.06022404 0.022866461 0.2860199 0.14876404
000060 aa 27 a6 3b 91 1d 9b 3d 3e 75 80 3c 43 f3 be bd
       0.0050706463 0.07573999 0.015680905 -0.09323742
000070 f7 31 1b be 72 d3 29 be 62 30 c4 b8 ec 2f a2 3d
       -0.15155779 -0.16584566 -9.35502e-05 0.079192966
000080 ca 2e 5b 3d 75 a6 d9 3c e8 ed 9a 3e f6 b8 72 3e
       0.05351142 0.02656863 0.30259633 0.2370337
000090 46 3e 11 bd 5c ae 08 be f4 17 31 be 07 0b 3e bc
       -0.03545978 -0.13347763 -0.17294294 -0.011599309
0000a0 e0 f2 76 bd f5 69 00 be ab ec a4 3c 29 a8 1e 3d
       -0.060290217 -0.1254042 0.020132383 0.03873459
0000b0 5e 9c 7a 3d ec c4 18 3d f6 7a 87 3c a2 7e 8c 3d
       0.06118428 0.037297174 0.016538125 0.06860091
0000c0 aa 06 26 3e 44 02 23 bb b2 c9 06 be 6a 99 bc 3d
       0.1621348 -0.0024873177 -0.13162878 0.09208949
0000d0 32 77 b4 bd 47 03 6c be 73 0d 0b be b9 43 cb be
       -0.08811797 -0.23048125 -0.13579349 -0.39700106
0000e0 e9 d4 ba be 64 e9 f2 bc d8 bf 00 3e ad 12 42 3c
       -0.36490563 -0.029652305 0.12573183 0.011845273
0000f0 d6 2a b1 3d 3d 42 ef 3e 08 a2 bd 3e 86 47 eb bc
       0.086507484 0.46730223 0.37037683 -0.028720628
000100 af 62 d1 be 6b 70 8f be b9 0d 87 bd 6e 01 f5 bd
       -0.40895602 -0.28015456 -0.06594414 -0.11963163
000110 3b d3 b9 bd 6c e2 af 3d 91 d5 19 3f 73 e4 e3 3e
       -0.09073492 0.085881084 0.600915 0.4451023
000120 aa 92 c4 bd 41 5e 8d 3c 78 31 5d bd a7 98 dd bd
       -0.095982864 0.017256858 -0.054002255 -0.10820132
000130 c4 43 82 3d 1a 9d fa 3c 29 5c 72 bb 3c 62 23 3e
       0.063605815 0.03059249 -0.0036981201 0.15955442
000140 92 26 0c 3e b9 aa 80 bc 68 f4 f0 bd b5 7d 11 be
       0.13686588 -0.015706407 -0.11765367 -0.1420811
000150 04 db fc bd 39 9a c7 be bb 62 6a be 1a 8d 54 bd
       -0.123464614 -0.3898485 -0.22889225 -0.051892377
000160 c9 76 ee bd 5a a0 1a 3c 7d 41 e5 bd 69 76 8a bd
       -0.1164375 0.009437645 -0.111941315 -0.06760866
000170 51 97 c2 3c 60 e8 e7 3d 8d 43 97 3e 9d 11 6d 3e
       0.023753794 0.11323619 0.29543725 0.2315125
000180 77 b7 84 3c ba 87 96 bd 56 cb 19 be e1 be 32 bc
       0.016200764 -0.073501065 -0.15018973 -0.010909767
000190 13 08 dd 3d ed 83 77 3d 8a 13 2a 3d be 58 a5 3e
       0.10792556 0.06042855 0.04152254 0.32294267
0001a0 eb b5 24 3e 76 30 0c 3c 25 e6 a1 3d d4 e1 91 bc
       0.16085021 0.008556476 0.07905225 -0.017807879

backbone.stage2.0.branch1.1.bias f4 [12]
000000 89 6c 5f 30 39 ce 12 b5 5f b1 1d b3 36 dc 2a b4
       8.1281165e-10 -5.468933e-07 -3.671573e-08 -1.5912596e-07
000010 36 2c a2 b3 71 0c af 33 eb d8 e1 34 fc 7b eb b4
       -7.551755e-08 8.1513356e-08 4.2067344e-07 -4.3862372e-07
000020 66 19 e3 33 45 40 96 b3 fb 17 f7 32 ac 6d d8 34
       1.0575131e-07 -6.99661e-08 2.876549e-08 4.0312932e-07

backbone.stage2.0.branch1.1.running_mean f4 [12]
000000 3b 23 4f 3c 20 ac c7 3e f4 77 11 3e 56 9c 38 3e
       0.012642677 0.38998508 0.14205915 0.18028387
000010 d5 f5 1e be c1 d4 31 bd 6a 08 2f 3e 80 60 c7 3d
       -0.15523465 -0.04341579 0.17093053 0.09735203
000020 04 12 55 3d 25 5f b1 be e0 f4 c0 3d a9 2c 2f 3e
       0.052019134 -0.34642902 0.09421706 0.1710688

backbone.stage2.0.branch1.1.running_var f4 [12]
000000 7a 3f 41 3d 18 b4 d5 3d ae 8d 58 3d e6 d2 6e 3c
       0.047179677 0.10434741 0.05286949 0.014576649
000010 ba bf 86 3c 16 57 bf 3c 2e 06 81 3d 58 32 2b 3d
       0.016448844 0.023356955 0.06300007 0.04179606
000020 f1 3f 4c 3c b7 85 9a 3d 3f 7a e7 3c 7d 77 9f 3d
       0.012466417 0.07545035 0.028256534 0.077864625

backbone.stage2.0.branch1.1.weight f4 [12]
000000 1b 54 8f 3e 21 bb 96 3e f3 b0 8d 3e c3 90 83 3e
       0.27993855 0.29439643 0.27674064 0.25696382
000010 f3 03 59 3e b8 e4 3a 3e 91 de db 3e b8 3e bb 3e
       0.21192913 0.18251312 0.42943242 0.36571288
000020 41 e4 16 3e 8f 1a b0 3e 74 c1 7f 3e f6 74 91 3e
       0.1473551 0.34395263 0.2497614 0.28409547

backbone.stage2.0.branch1.2.weight f4 [12, 12, 1, 1]
000000 bd e0 d2 3c d6 8d 9b bd 1b 05 cd 3e 69 c7 b0 3d
       0.02574193 -0.075954124 0.40042958 0.086317845
000010 00 68 f8 bd 02 d1 d7 3d d0 5c ca bd a2 2f a1 bc
       -0.121292114 0.10537912 -0.09880984 -0.019676033
000020 a7 88 40 bd c2 1d 3e 3d c6 73 e5 bc e8 3e c2 3e
       -0.04700532 0.046415098 -0.028009307 0.3793862
000030 4c 17 cd be 35 9f 9e 3d db 3c 79 3d d9 0b 8e 3c
       -0.40056837 0.0774521 0.060849052 0.017339634
000040 0b a7 62 3e d6 5b 6d 3d cf 3e e4 bd 47 12 b3 3e
       0.22134034 0.05794891 -0.11144792 0.34974882
000050 93 0e 3a bd f4 ac 34 3d 71 02 a8 bc 98 a0 80 3d
       -0.045424055 0.044110253 -0.020508977 0.06280631
000060 77 30 af 3c 9c b3 c4 3d 67 1a 93 3d 52 4f ba bc
       0.021385415 0.0960457 0.0718277 -0.022742901
000070 4e e1 eb bd ff 59 bd be 50 56 2e be 00 23 e1 bd
       -0.11517583 -0.36982724 -0.17025113 -0.10993004
000080 15 a7 89 3e bc 28 24 bc b1 f9 dc 3d c1 92 b9 3d
       0.26885286 -0.010019477 0.10789812 0.09061194
000090 6a 3e 1f 3d 7f 13 eb 3b 2a 81 c2 3c d6 55 03 bd
       0.038877882 0.007173955 0.02374323 -0.03206428
0000a0 99 24 38 bd c3 14 94 3c 07 ea 58 3d 84 f5 3c be
       -0.044956777 0.018076306 0.05295756 -0.18453032
0000b0 3f 80 52 bc 79 40 73 3d f0 b7 e4 be 97 63 78 3e
       -0.012847959 0.059387658 -0.44671583 0.2425674
0000c0 23 34 34 3d 26 ba b4 3d b5 65 a3 3d e5 33 df 3e
       0.043995034 0.088245675 0.079783835 0.4359428
0000d0 ce c2 4e be 06 56 17 bc 0f 08 8b bd 90 2f ae bd
       -0.201915 -0.009236818 -0.067886464 -0.085051656
0000e0 4b fb d2 3d a6 fe 9a bd 99 bf 1c 3e d7 bd ff bd
       0.103018366 -0.075681016 0.15307464 -0.12487381
0000f0 fb 01 89 bd c3 36 63 3d 93 af 1d 3e e5 db a1 3c
       -0.06689831 0.055472147 0.15399007 0.019758174
000100 98 61 72 be 2f df 06 3d cf da f7 be e1 8e f1 3d
       -0.23670042 0.03292769 -0.48409125 0.1179483
000110 4e 91 fb bc a1 0f a5 3d ca cb 0b be 5d 73 71 3e
       -0.030708935 0.080596216 -0.13651958 0.23579164
000120 96 37 26 bf bb 8e 5b 3b cc 04 7d bb 17 d1 c5 bd
       -0.6492857 0.0033501822 -0.0038607595 -0.09659021
000130 c3 1a d1 3a 9b 15 ad 3c 19 7b d2 3d c4 7d 00 3e
       0.001595341 0.021128466 0.10277385 0.12547976
000140 ad be 89 3a 8e 27 0a 3d 34 be bd bb 35 5f ef 3c
       0.0010509096 0.03372913 -0.0057904962 0.029220203
000150 3e 59 6e 3c 68 1e de be 3d 85 06 3e 13 bc 83 bc
       0.014547644 -0.43382573 0.13136764 -0.016080892
000160 16 1b 1e 3d 84 3d d4 bc ba c3 96 3d 33 b8 38 bc
       0.03860005 -0.02590824 0.07361551 -0.011274385
000170 73 41 32 bd af d0 df be 03 54 ee bd 8b d4 2c 3e
       -0.04351945 -0.437139 -0.11637118 0.16877954
000180 72 17 87 3d 7c bf fd 3c 09 c7 40 bd 30 49 f8 bb
       0.06596269 0.030975096 -0.047064815 -0.007577084
000190 17 dd 24 3e b8 f4 84 bd 0f 56 e7 bc 3b cc 07 3f
       0.16099964 -0.06491989 -0.028239278 0.53046006
0001a0 6b 90 64 3d 0d 73 1b 3d 2c f6 ea 3c 5a a0 9b 3a
       0.05580179 0.037951518 0.028681837 0.001187335
0001b0 e0 00 f1 39 e0 1d 5e 3e 77 20 97 bd 46 bf 4b be
       0.00045967754 0.21691084 -0.07379239 -0.19897184
0001c0 71 df de bb 8a 73 28 bd 3a 87 9f 3e c1 53 ad bd
       -0.0068015386 -0.04112581 0.31157857 -0.084632404
0001d0 dc 9e 7e bc 2e 9d 73 3e d8 6b 0e be ff e6 83 bc
       -0.015540805 0.23790428 -0.13908327 -0.016101358
0001e0 46 9f 0e 3d f1 d8 1a 3e 03 67 89 3d c1 81 8b be
       0.034819864 0.15121819 0.06709101 -0.27247432
0001f0 54 ca 9f 3d 44 c1 9d bc f9 e1 c2 be 84 e6 87 be
       0.07802263 -0.019257195 -0.38063028 -0.26543057
000200 af a4 5a bc c4 98 40 3e 70 7b e7 3d cc 11 85 bc
       -0.013344928 0.18808275 0.11302841 -0.016243838
000210 88 9e ed 3c 1f 04 91 3e 26 8d 51 be f5 da 30 bd
       0.029006258 0.28323457 -0.20464 -0.043177564
000220 b5 a0 09 3d f9 53 3d bd ef 67 07 bd 7e 96 03 bd
       0.033600528 -0.04622266 -0.033058103 -0.032125942
000230 8f 34 3c 3c 16 df f1 3e 0d 02 c0 3c 93 7d 58 be
       0.01148714 0.47240514 0.023438478 -0.21141653

backbone.stage2.0.branch1.3.bias f4 [12]
000000 a6 22 76 3e 59 2e a2 3d 52 90 48 3e 8a 64 f3 3e
       0.24036655 0.07918996 0.19586304 0.47537643
000010 5c a7 58 3e ad 15 31 3e d7 82 e7 3d 62 b2 0e 3e
       0.21157593 0.17293425 0.113042526 0.13935235
000020 a7 8e 08 bd 71 74 3d 3d d4 6f 3a bc 12 f2 ab 3d
       -0.03333917 0.046253625 -0.011379201 0.083957806

backbone.stage2.0.branch1.3.running_mean f4 [12]
000000 78 3d 1b 34 83 91 82 b4 f5 59 d4 b2 c7 33 45 34
       1.4457862e-07 -2.432026e-07 -2.4720956e-08 1.8365891e-07
000010 86 bb fa b3 45 5c 4f b4 e4 6c 52 32 9f 4c c2 34
       -1.16756425e-07 -1.9311945e-07 1.2248368e-08 3.6191065e-07
000020 72 65 90 b4 e4 ae 50 33 96 d3 03 b4 d7 21 93 b4
       -2.68959e-07 4.8587836e-08 -1.22773e-07 -2.7405505e-07

backbone.stage2.0.branch1.3.running_var f4 [12]
000000 7d 57 f6 3c 71 f4 a3 3c f2 c4 9b 3c 31 f9 fc 3c
       0.030071015 0.02001402 0.01901481 0.030880542
000010 89 c9 b1 3c 85 ee 2b 3d 61 f0 db 3c 03 a7 35 3c
       0.021702545 0.041975517 0.02684802 0.011087182
000020 c8 cc 38 3d a8 44 18 3d cc 97 14 3d de b1 f0 3c
       0.04511717 0.03717485 0.036277577 0.029381689

backbone.stage2.0.branch1.3.weight f4 [12]
000000 08 fb 42 3e 0a 9e 3c 3e ac 32 57 3e 0a d8 52 3e
       0.19041073 0.18419662 0.21015424 0.20590225
000010 68 44 38 3e b8 c8 84 3e 8c ae 6b 3e b8 ae 35 3e
       0.17994845 0.25934386 0.23015803 0.17742431
000020 3b 9c ae 3e 9f 73 a7 3e 2b 91 9d 3e 9f 82 d1 3e
       0.3410357 0.327054 0.30774817 0.40919968

backbone.stage2.0.branch2.0.weight f4 [12, 12, 1, 1]
000000 90 b9 2c bd ab 38 61 3d 35 13 c1 3d 04 11 28 bf
       -0.042169154 0.054985683 0.094274916 -0.65650964
000010 2e 40 20 bf af 5c 42 3d 65 98 19 bf 19 bf 96 be
       -0.6259793 0.04745167 -0.5999816 -0.2944267
000020 14 a9 24 bd bd b5 c4 3c 7d 8d 6d 3d 39 a5 83 3d
       -0.040200308 0.02401244 0.057996262 0.06427998
000030 62 df ab 3c c8 51 e7 be 95 39 d9 3d a1 7a 00 be
       0.02098054 -0.45179582 0.10606686 -0.12546779
000040 ad 7e 27 3d 48 e8 1f bf 1d 08 07 3f c8 f9 80 3e
       0.04089229 -0.6246381 0.52746755 0.25190568
000050 88 f8 21 bf f3 c6 82 bd 46 73 3d 3e 1a cb 96 3e
       -0.63269854 -0.06385603 0.18501005 0.2945183
000060 84 70 89 bd c0 2d 6c 3e 7e 50 fb be da a8 0e 3d
       -0.06710914 0.23064327 -0.49084848 0.034829
000070 32 65 cb 3d 19 63 9d 3e 8c 15 da 3c f7 c1 87 3e
       0.09931411 0.30739668 0.026621602 0.2651517
000080 6a 28 e9 3d 0c c0 a9 be 1d 0c c6 be 8b 31 58 be
       0.113846615 -0.33154333 -0.38681117 -0.21112649
000090 12 0c ae bc 67 8f 97 bc ee 11 c4 be ed 11 29 bd
       -0.02124599 -0.018500997 -0.3829493 -0.04127686
0000a0 96 60 04 be 30 be a4 3d d8 04 24 bc 18 01 cc 3d
       -0.1292747 0.08044088 -0.01001092 0.09961146
0000b0 c7 07 e9 3c cb b4 12 3d 19 d7 89 bd 0a 61 e9 be
       0.028446091 0.03581695 -0.0673048 -0.45581847
0000c0 e0 0f b7 3c 94 4d 97 3d 54 28 bb be 9d 02 e0 bd
       0.022346437 0.07387844 -0.36554205 -0.109379984
0000d0 20 da ac bd cc 75 b5 3c 6e 6d 1e 3e 21 b3 79 3e
       -0.084400415 0.022150896 0.15471432 0.24384739
0000e0 54 cc 22 3d 12 37 b7 bc 34 d8 68 3d 08 e7 34 bf
       0.039745644 -0.022365127 0.056846812 -0.70665026
0000f0 6a cb 2b 3f ca 20 97 3d 3f 15 b6 3b 6c 46 f7 3d
       0.6710726 0.07379301 0.005556732 0.12073979
000100 e8 65 d8 bd a5 a6 74 3c 08 b1 d9 be c4 bc 0a bf
       -0.10566312 0.014932309 -0.42517877 -0.54194283
000110 65 7d 0e 3d 57 5b ce bd 7b 4a 43 3d bb 64 7f bc
       0.034787554 -0.100760154 0.047678452 -0.015587981
000120 18 1e 05 bf ec cb 25 3d 46 38 28 be a0 41 e1 bd
       -0.51999044 0.04047768 -0.16427717 -0.10998845
000130 a3 ab 63 3d 79 51 18 3c 9c 4b 84 3e 40 a4 6e 3e
       0.055583607 0.009296768 0.25838935 0.23304844
000140 4d e7 ef bc d3 98 e0 bd 1e 2b 41 bd ad 1e 17 be
       -0.029285097 -0.10966649 -0.04716026 -0.14757796
000150 8f ef e0 bd ba 69 01 3c ad 7c f4 bd 04 aa 43 3d
       -0.10983192 0.007898742 -0.119378425 0.04776956
000160 93 34 90 3c cd 1a 63 bc fe f3 06 bf ec e1 0f 3f
       0.017603194 -0.01386137 -0.5271605 0.56204104
000170 7f 18 0b bd 41 45 7b bc b6 d4 06 3d 72 0f 9b bd
       -0.03395891 -0.015336336 0.0329177 -0.07571305
000180 b6 7e 82 3c 5e 48 19 be ad 7c cc 3d f6 5a c9 be
       0.015929561 -0.14969012 0.099847175 -0.3932721
000190 b0 f1 d5 be c8 53 3e be 49 76 c5 be 4a 88 d3 bd
       -0.41785955 -0.18586648 -0.38566807 -0.103287295
0001a0 fd f3 5c be 98 f1 e1 3c 50 ae 34 3d f8 65 1e 3e
       -0.21577449 0.027581021 0.04411155 0.15468585
0001b0 05 f4 d4 bd 15 7b 6e be fa 0c 0e be 77 ab 99 3c
       -0.103981055 -0.2328914 -0.13872138 0.018758519
0001c0 06 37 b1 bc 07 a6 5a be 65 96 74 3d 99 c6 d2 3e
       -0.021632683 -0.21352397 0.05971374 0.41167143
0001d0 9f 4f 90 be 21 c5 4c bd c2 bc 1a bc cf 46 9a 3d
       -0.28185746 -0.049992684 -0.009444417 0.07533037
0001e0 c4 05 b6 bb 73 7f 07 bf db 03 9d bd 3a d5 33 bd
       -0.0055548865 -0.5292885 -0.07666751 -0.04390452
0001f0 71 54 80 bc 1e 7f a7 3e 05 65 23 3e 80 01 e6 3d
       -0.015665265 0.3271417 0.15956505 0.11230755
000200 8c 58 45 bd 73 d8 0c 3f a2 a6 44 bf 50 44 2a 3d
       -0.048180148 0.55017775 -0.7681676 0.041569054
000210 9f 8c 32 bf 8a 4e 69 3d 0c 61 36 3d a0 b4 77 3c
       -0.6974582 0.056959666 0.044526145 0.015118748
000220 98 23 99 3d ef c2 54 3c fa c0 a0 be 67 e8 92 be
       0.07477492 0.012985929 -0.3139723 -0.28692934
000230 e8 e3 0b 3d d3 df 7c bc e8 2e 96 3d b4 dc 16 3d
       0.034152895 -0.015434223 0.073331654 0.036831573

backbone.stage2.0.branch2.1.bias f4 [12]
000000 96 2b 5d 3d ed 80 71 3c f2 6e b3 3d 7d fc c2 3d
       0.053996645 0.014740211 0.087613955 0.095208146
000010 4a 1e b7 3d eb cb 0c 3e ce 63 37 be 76 f0 32 3e
       0.08941324 0.13749664 -0.17909166 0.17474541
000020 6f ed a3 3e 79 cd 2a 3e 54 59 45 3d c5 ae 32 3e
       0.32017085 0.16679944 0.048180893 0.17449482

backbone.stage2.0.branch2.1.running_mean f4 [12]
000000 32 22 ac bf eb 92 04 3e 84 b3 08 3e bd d0 34 be
       -1.3447936 0.1294667 0.1334973 -0.17657752
000010 d3 90 49 3d 3d a7 14 bf e1 6e 1d 3e e8 eb 4e be
       0.04921038 -0.58067685 0.15374328 -0.20207179
000020 ad 26 79 bf 68 8c 5a 3c 94 14 54 3d c8 81 0a bf
       -0.9732464 0.0133391395 0.051777437 -0.5410428

backbone.stage2.0.branch2.1.running_var f4 [12]
000000 e4 1c 90 3d d5 cb 15 3e 02 5a a2 3d eb 86 ba 3d
       0.070367604 0.14628537 0.07927324 0.09107765
000010 a3 46 0c 3e 5f 1b 2f 3d 7a 54 5b 3d 76 c4 2f 3e
       0.13698821 0.042750712 0.05354736 0.17164788
000020 3d 21 8c 3d e6 85 85 3d 09 1c 43 3d ad 1f da 3d
       0.06842277 0.0651968 0.04763416 0.10650573

backbone.stage2.0.branch2.1.weight f4 [12]
000000 88 eb 97 3e 16 76 b8 3e 80 99 88 3e 7a e8 8d 3e
       0.29671884 0.36027592 0.2667961 0.27716428
000010 93 ec 94 3e cc 43 65 3e 6f 95 0f 3e 33 3d f8 3d
       0.29086742 0.22389144 0.14021848 0.12121048
000020 be 0c 68 3e c2 a4 43 3e 18 19 96 3e f3 64 98 3e
       0.22661111 0.19105819 0.2931602 0.29764518

backbone.stage2.0.branch2.3.weight f4 [12, 1, 3, 3]
000000 ad fb a5 bb bf b5 1d be b2 25 13 be b7 87 00 bd
       -0.0050654025 -0.15401362 -0.14369848 -0.031379428
000010 0b 7d a1 be 28 0d 9d be 7f c3 be 3c 08 e1 14 be
       -0.31540713 -0.306741 0.02328658 -0.14538968
000020 01 ef 01 be 5b 05 b9 3c 20 be db 3d 33 75 eb 3d
       -0.12688829 0.022585561 0.10729623 0.11496963
000030 01 0c c8 3d c7 fa 9b 3e 0c 9c 88 3e 74 69 8a 3d
       0.097679146 0.30464765 0.26681554 0.06758395
000040 c4 8d 31 3e b3 01 16 3e 1c 7c c2 bb 3a 26 cc 3c
       0.17339236 0.14649086 -0.005935205 0.024920572
000050 d3 27 c2 bc 95 12 8e bd 73 02 2e be 08 95 2f be
       -0.02370063 -0.06937138 -0.16993122 -0.17146695
000060 9f bd b5 bd a4 4d 87 be 18 92 87 be 97 fd 12 bd
       -0.08874058 -0.26426423 -0.26478648 -0.035886373
000070 65 93 13 bd 7d 19 b0 bd 3c 04 de bd 04 33 a4 be
       -0.03602924 -0.085986115 -0.108406514 -0.32070172
000080 91 f0 8c be 2d 52 e6 3d 62 d0 9c 3e 5f e4 50 3e
       -0.27527288 0.112461425 0.30627733 0.20399617
000090 12 c2 a0 bb 2f a4 59 bb 18 4b 68 3c 2d 12 92 3d
       -0.0049059475 -0.0033209433 0.01417806 0.07132373
0000a0 d7 0d 7b 3e c7 08 7a 3e 1e 31 b4 3d e9 ae 7f 3e
       0.24516998 0.24417411 0.08798431 0.24969067
0000b0 93 56 72 3e 7f 53 74 3d 7d 51 3a 3c 59 49 a2 3d
       0.23665838 0.05964994 0.011371967 0.07924146
0000c0 81 c5 f7 bd 09 1e d5 be 56 20 ad be c3 46 38 bc
       -0.12098218 -0.41624478 -0.33813733 -0.01124734
0000d0 94 b6 3f bd b8 5d 03 bd 62 af 51 3d be 6f 0c 3e
       -0.04680498 -0.0320718 0.05119265 0.13714501
0000e0 35 67 3c be b5 26 55 3d 19 04 70 3e 14 e2 dc be
       -0.18398745 0.052038867 0.23439063 -0.43141234
0000f0 21 68 6a bb 6c f9 c9 3d b4 65 77 be 9a d6 88 bd
       -0.0035767632 0.098620266 -0.2415989 -0.06681557
000100 80 63 e1 bd 35 ab d6 bd 86 0a 1d 3e 90 22 f2 3e
       -0.11005306 -0.10481874 0.15336046 0.47291994
000110 ac 04 d4 3e 56 b4 c1 bd b6 70 81 be ab 92 57 be
       0.41409814 -0.094582245 -0.25281304 -0.21052043
000120 5c 6a 53 bc 39 e2 4c 3e 97 b7 32 be cc c5 7d bd
       -0.012903776 0.20008172 -0.17452846 -0.061956212
000130 f8 c8 c8 3e 00 13 d4 be cb 63 6f bd 32 43 72 3e
       0.39215827 -0.41420746 -0.05844478 0.23658445
000140 aa ec 90 be 97 bb eb bd 66 89 a3 be 98 aa a6 be
       -0.2830556 -0.11510389 -0.31940764 -0.32552028
000150 7a a1 43 3d 16 c0 93 3c 34 4d a4 3c 95 e9 eb 3c
       0.047761418 0.01803593 0.020056345 0.028797904
000160 d8 b7 93 3d 5f a5 13 3d 06 e7 10 3e 97 f2 1d 3e
       0.072128 0.036046382 0.14150628 0.15424572
000170 2f 90 ad 3d 46 a8 2a 3e 5a 5b 8e 3e 82 5b 1e 3e
       0.084747665 0.16665754 0.2780407 0.15464595
000180 f5 c3 64 3d 00 de 2a 3e 9b 81 09 3e 11 db 44 bd
       0.05585094 0.16686249 0.13428347 -0.04806048
000190 08 05 cc bd 44 bb 64 bd d0 e4 a5 bc e1 7c 95 be
       -0.09961897 -0.055842653 -0.020250708 -0.29196838
0001a0 01 fd 5b be 6e db 8f 3d d5 7c 9b bd 45 05 41 bc
       -0.21483232 0.07024275 -0.07592169 -0.0117810415

backbone.stage2.0.branch2.4.bias f4 [12]
000000 0f 1c 15 b5 66 9e 00 b5 ae 7c 09 b5 cc d4 23 b4
       -5.5547656e-07 -4.7914216e-07 -5.121791e-07 -1.5257973e-07
000010 7e 5e 1e b3 0a f7 ec 34 3b 26 57 b4 e4 7e 44 b3
       -3.6873182e-08 4.413817e-07 -2.0037344e-07 -4.5750213e-08
000020 03 ae ea b3 18 d3 84 34 87 cf 3a 35 c1 0b 13 35
       -1.0928127e-07 2.4740507e-07 6.959239e-07 5.477887e-07

backbone.stage2.0.branch2.4.running_mean f4 [12]
000000 94 63 0b be 09 d8 1a 3e d3 0e 16 be e6 4d 06 bd
       -0.13612205 0.15121473 -0.14654092 -0.032789133
000010 e9 ca 30 3e 14 d4 f7 bd 8c 30 aa 3b 9c af 11 3d
       0.17264904 -0.121009976 0.0051937755 0.035567865
000020 83 24 82 bd 6b 16 c8 bd fc 7d 24 3e 96 3a 2a be
       -0.0635462 -0.09769901 0.16063684 -0.16623911

backbone.stage2.0.branch2.4.running_var f4 [12]
000000 4d 07 2c 3d 15 85 7e 3c 67 ee 1a 3c fa 5c 79 3b
       0.04199915 0.015534659 0.009456254 0.0038049803
000010 e0 02 47 3c 5c b1 e6 3c 71 83 f4 37 41 14 97 3a
       0.012146682 0.028160743 2.9148274e-05 0.0011526422
000020 0e 60 15 3c 15 41 e1 3b cb 83 5f 3c c3 7d 2f 3c
       0.0091171395 0.0068742135 0.013642262 0.010711136

backbone.stage2.0.branch2.4.weight f4 [12]
000000 f4 6f ba 3e 84 10 de 3e bd 1e ab 3e dc 48 87 3e
       0.36413538 0.43371975 0.3342189 0.26422775
000010 52 c8 b4 3e 7d 15 ab 3e 26 5d 84 3e de 1d a4 3e
       0.35309082 0.33414832 0.25852317 0.32054037
000020 76 20 79 3e 5e a8 97 3e 5e a5 9f 3e f0 c9 b4 3e
       0.24328789 0.2962064 0.31180853 0.35310316

backbone.stage2.0.branch2.5.weight f4 [12, 12, 1, 1]
000000 f9 89 26 3e 0b 56 fc 3e a3 2e 09 3e 75 9f 0e be
       0.1626357 0.49284396 0.13396697 -0.13928016
000010 a3 b4 83 bc 38 77 1b be 47 8a 8e bd d8 6a b4 bd
       -0.016077345 -0.15182197 -0.06959968 -0.08809441
000020 85 db 49 bc b5 b5 6c be cb bc 98 3d bd 76 89 be
       -0.012320404 -0.2311619 0.074578844 -0.26848403
000030 7d f3 56 be 7f 03 b9 3d c0 98 11 3e 3c eb 4a 3c
       -0.20991321 0.0903387 0.14218426 0.012385186
000040 eb cb bf bd b2 31 da bc 43 4a e6 3d ac b4 37 bd
       -0.09365066 -0.026635025 0.11244633 -0.044850037
000050 95 f7 1e 3f f9 de 8e 3b e8 fc 43 3d f7 61 de bd
       0.6209653 0.0043600765 0.047848612 -0.10858529
000060 fa 2d 44 3e 82 10 59 be 79 2c bd be 31 9d 5a bc
       0.19158164 -0.21197703 -0.36947992 -0.013343141
000070 c9 4e 6b 3e 8c bd 6e 3d 93 62 53 3d 8d 7a 8e 3d
       0.22979273 0.058286235 0.05160768 0.069569685
000080 53 dd ac 3e 9c 88 0c bc 0b 9a 3e bd 63 68 17 3e
       0.33762607 -0.008577492 -0.046533626 0.14785914
000090 25 0c 68 3d 3b a7 b6 3d c5 49 88 bc 92 3b 01 bf
       0.056652207 0.089186154 -0.016636739 -0.5048152
0000a0 15 9f 0e be 16 b9 e0 3a 6c 20 b9 bb 18 6a 07 3f
       -0.13927872 0.0017145004 -0.005649617 0.5289626
0000b0 93 64 a6 3c 19 a2 b4 3e db 17 76 3c e7 d1 ab 3c
       0.02031163 0.3527992 0.015020336 0.020974113
0000c0 ef 44 f0 bd 7b b8 03 bf 81 2b 1a be 89 72 5e be
       -0.11731898 -0.5145337 -0.15055658 -0.21723379
0000d0 f3 b5 5c 3c 76 93 ed bd de 7b 5f 3c b5 aa 27 3e
       0.013471114 -0.116003916 0.013640372 0.16373713
0000e0 04 32 94 bc a2 d6 66 bd 64 d2 d0 bc c6 89 fd bc
       -0.018090256 -0.056357034 -0.025490947 -0.030949485
0000f0 90 20 a3 be c9 6c e0 bd f5 6a 71 3e b8 18 70 3c
       -0.3186078 -0.10958249 0.23575957 0.014654331
000100 9d 2f e8 be e8 5a 78 3e c4 fc a1 bc cc ba 58 3d
       -0.45348826 0.24253428 -0.019773848 0.05291252
000110 4c d0 f8 3c 58 27 61 be f0 af 1f be 0a 54 d7 3e
       0.030372761 -0.21987665 -0.15594459 0.42056304
000120 46 de 15 be ac 61 91 3e 25 47 8d bc b4 79 b1 3b
       -0.14635572 0.2839483 -0.017245838 0.0054161195
000130 a6 b6 c6 be c1 21 59 bd ee 9a 52 3c 97 c3 84 3e
       -0.38811225 -0.053010706 0.012854321 0.25930473
000140 af 70 e8 3c e9 09 90 be ef 9a 02 be 69 06 17 3a
       0.028374044 -0.2813256 -0.12754415 0.0005761148
000150 1e d0 26 bc c2 f1 ff bb db 4f 41 3d 17 69 98 3d
       -0.010181455 -0.007810802 0.047195297 0.07441919
000160 a1 ac 1a 3e a7 79 50 3c fb b1 11 bc e3 ac 84 bd
       0.15104915 0.012724317 -0.0088925315 -0.06478288
000170 5f 4c 4b bb 33 81 13 3e 37 e0 29 bf a6 03 ea 3c
       -0.0031020863 0.14404754 -0.6635775 0.028566193
000180 a9 04 96 bd be 34 9f bd db 3a 86 bc 84 ad ef bc
       -0.073251076 -0.07773732 -0.016385486 -0.029257543
000190 db 5b d2 3c bb e2 62 bd ef e5 25 bf 6b 7e 69 3d
       0.025678566 -0.05539201 -0.64803976 0.057005327
0001a0 58 77 68 3d 1a 85 7a bd bf b5 02 bd f1 a6 b0 3d
       0.05675444 -0.06116209 -0.031911608 0.086255915
0001b0 8c 0d 57 3d 84 62 4d 3e 39 28 a6 be b7 b9 a3 bc
       0.052503154 0.20057112 -0.32452562 -0.019986017
0001c0 89 95 73 3e 19 4f ea 3d 01 9c bd bd bd 15 fb bd
       0.23787512 0.11440868 -0.09258271 -0.122600056
0001d0 3a 9b b7 bc 2b a4 b7 3d dc 49 5f 3d 62 91 fd bc
       -0.022412885 0.089668594 0.054513797 -0.030953113
0001e0 e9 2d b7 be 8d 68 23 3d 34 75 10 be 6d 73 62 3c
       -0.35777214 0.03989463 -0.1410721 0.013821465
0001f0 16 95 11 3d 1d c3 21 3f 2d e8 38 bd a2 5b b8 3d
       0.03554257 0.63188344 -0.045143295 0.090018526
000200 23 9d a3 3c d2 e4 13 be 41 61 5e bd 51 81 10 3e
       0.01997239 -0.14442757 -0.054291967 0.1411183
000210 31 08 0b bf 7f 9c 98 bd 29 2d 73 be 2b 43 59 3d
       -0.54309374 -0.07451724 -0.23747696 0.053042572
000220 9c 8b 66 3d 0d 7f 7d bd 4f 6e ad 3d bc 69 f5 3c
       0.056285486 -0.061888743 0.08468305 0.029957645
000230 3c f3 30 3c 22 64 c2 bc db e8 1d 3d 48 2e c8 3e
       0.010800179 -0.023729388 0.038552146 0.3909781

backbone.stage2.0.branch2.6.bias f4 [12]
000000 b4 44 1f 3f 5e 31 02 3f 69 3f 04 3f 07 1f 1a 3f
       0.6221421 0.5085658 0.51659256 0.60203594
000010 d0 e7 34 3e 64 cd 8c 3e 94 dd ce 3e 89 3b 06 3f
       0.17666554 0.2750045 0.40403426 0.52434593
000020 ae 52 69 3d d3 d7 85 3d df 36 84 3e 25 2a 84 3e
       0.056963615 0.06535306 0.25823113 0.25813404

backbone.stage2.0.branch2.6.running_mean f4 [12]
000000 ff 44 13 b5 25 77 01 b4 60 92 53 34 53 df e3 33
       -5.486217e-07 -1.2057406e-07 1.9704157e-07 1.0611134e-07
000010 a1 2d a6 34 f4 68 90 34 d0 95 6c b4 8b aa ef b4
       3.095311e-07 2.6898454e-07 -2.2033714e-07 -4.4641305e-07
000020 02 8e 4c 34 5c dc 34 34 95 67 0f 35 d4 bf 2a 35
       1.9050643e-07 1.6843973e-07 5.3422383e-07 6.360908e-07

backbone.stage2.0.branch2.6.running_var f4 [12]
000000 d8 f0 95 3d 4f 21 01 3d 13 41 3f 3d 1d 0a 2c 3d
       0.07321328 0.031525906 0.04669292 0.042001832
000010 fb b7 a0 3d 0f 47 b8 3d b1 a8 8a 3d f7 61 4a 3d
       0.078475915 0.08997928 0.067704566 0.049409833
000020 18 56 9b 3c a8 89 2c 3d 55 35 90 3d 20 e3 00 3e
       0.018961951 0.042123467 0.07041422 0.12586641

backbone.stage2.0.branch2.6.weight f4 [12]
000000 c0 b3 52 3e 57 2c 46 3e 38 d9 62 3e d3 50 55 3e
       0.20576382 0.19352852 0.22153175 0.20831613
000010 bb 2c 95 3e df 39 8b 3e 9a d0 74 3e 3a 60 69 3e
       0.2913569 0.2719259 0.239077 0.22790614
000020 c8 76 56 3e 2d c9 ae 3e d8 75 9b 3e 12 d0 9d 3e
       0.20943749 0.3413786 0.30363345 0.30822808

backbone.stage2.1.branch2.0.weight f4 [12, 12, 1, 1]
000000 bf d3 a1 bd 3a d1 de 3e 01 30 d4 bb ce a9 5e 3e
       -0.079017155 0.43519002 -0.006475449 0.21744463
000010 1d f6 ed bd 80 2c d9 3c f9 68 a8 bd d7 16 ea 3d
       -0.11619208 0.026510477 -0.08223147 0.114301376
000020 47 7d 69 bc cf 6b a2 bd 6b d9 e0 3d 4b 38 af 3d
       -0.01425106 -0.07930719 0.10978969 0.08555659
000030 43 ba 25 3e bb 0d b8 3d e0 78 e8 bd d8 bb ac bc
       0.16184334 0.08986994 -0.1135118 -0.021085665
000040 b3 e2 f2 be 9c 88 16 3d 9e ac 95 3c 14 7f 55 3e
       -0.47438583 0.036751375 0.018270787 0.20849258
000050 14 f5 d1 bc 25 2d 57 3d 01 f1 df 3b 22 12 18 3e
       -0.025629558 0.052533288 0.00683415 0.14850667
000060 fb c8 04 3e 9d c2 4d 3e 77 f3 70 3d b3 05 2b 3d
       0.12967293 0.2009377 0.058825936 0.041753482
000070 b8 a1 71 bd 1c d8 0e 3e 11 ce 1d 3d 0a 65 1c 3d
       -0.058992118 0.13949627 0.0385266 0.038182296
000080 cc bf ff bc 08 ec cf be 06 49 2c 3d 59 cd 0e 3f
       -0.031219386 -0.40609765 0.042061828 0.55782086
000090 6b e8 17 3f 71 f2 b8 bc 6b 5f 92 bd 69 21 88 3c
       0.59339017 -0.022576543 -0.07147106 0.016617494
0000a0 3f 47 a5 bd 82 27 e2 bb e2 6a 76 be bd 89 c6 bc
       -0.0807023 -0.0069016824 -0.2406421 -0.0242356
0000b0 87 a1 65 3c 2a 64 fe 3c bc 1f 8a bc b3 52 b6 3c
       0.014015562 0.031053621 -0.016860835 0.022256231
0000c0 8f 24 8a bc 17 05 9e 3b 6e 19 d3 bd 1e be d5 bd
       -0.016863136 0.004822384 -0.10307585 -0.104366526
0000d0 18 c9 74 3d f1 db 82 bd 60 d9 a8 bc 39 c9 40 3e
       0.05976209 -0.06389607 -0.020611465 0.1882676
0000e0 e7 40 42 3d ba 7d e1 3e 3b f0 93 3e ce ff 3b 3e
       0.047425177 0.44041234 0.2889422 0.183593
0000f0 d2 38 0d be 93 7e 49 bd 52 b6 7e 3d 20 bc 24 3e
       -0.13791206 -0.049192976 0.062185593 0.16087389
000100 5b 4f 8a 3c 9d e8 12 3c a5 42 51 be 3e be a6 3e
       0.016883543 0.008966592 -0.20435579 0.32567018
000110 61 6a 32 3d 23 eb 10 3e d7 7b 75 bd 07 ab e1 3e
       0.043558482 0.14152198 -0.059932556 0.44075796
000120 e7 24 67 3a c6 74 d9 3d a5 2d 91 bd 78 03 9a bc
       0.00088174496 0.10617976 -0.07088784 -0.018800482
000130 67 16 53 3c 08 e6 f7 be f7 64 21 bd e6 4b b8 bd
       0.012883759 -0.48417687 -0.03940293 -0.089988515
000140 91 61 93 3d 77 69 40 3d 3f 24 0b bc 51 ff 61 3d
       0.07196344 0.04697558 -0.008492528 0.05517513
000150 94 92 9c bc 40 2e 05 3e 68 8b 1a 3d c4 fb 81 bd
       -0.019112863 0.13005924 0.037730604 -0.063468486
000160 0f 88 e0 3e 26 12 11 3e fa 44 7e 3e fa 08 df 3d
       0.43853804 0.1416708 0.24831 0.10890384
000170 54 d9 01 3e bb 65 87 be d3 75 f7 3c fc 0a 65 bd
       0.1268056 -0.26444802 0.03020755 -0.05591868
000180 5d 2e b3 3b f8 9d 43 3e 13 44 50 be 13 3d e7 3e
       0.0054681734 0.19103229 -0.20338468 0.45163783
000190 43 93 c3 3c 63 0a 63 3c 13 06 16 3d ef 90 f0 3c
       0.02387393 0.013857457 0.036626887 0.029365985
0001a0 1c 5c 15 3c 8a 69 09 3d 3f 57 b2 3e 08 ea 36 bd
       0.009116199 0.033547916 0.34832188 -0.044656783
0001b0 31 20 a1 3c ea e1 f7 3d 9f e3 44 be 04 4e ce 3e
       0.01966867 0.121036366 -0.19227456 0.40293896
0001c0 6d 02 1c bd 8e 49 12 3d 70 3d 93 3d 68 90 ff 3b
       -0.03808825 0.03571468 0.07189453 0.007799197
0001d0 4a eb 92 3d b9 46 4a bd 11 74 1e 3e c9 ae 25 bd
       0.07173784 -0.049383853 0.15473963 -0.04044989
0001e0 25 cb fb 3d 41 23 b0 3e 21 dd 8b 3e e2 2f 1f 3d
       0.12294606 0.34401897 0.27317145 0.038864024
0001f0 18 3e 73 3d 9e 5d 0c be b8 6f 31 3e d4 39 c2 3d
       0.05938539 -0.13707587 0.17327774 0.09483686
000200 09 18 dc 3e 93 de da 3d 61 f2 de bd c4 f9 43 be
       0.42987087 0.10686984 -0.10886074 -0.19138247
000210 42 ad 92 3d 19 dd 71 be 9a e0 a7 bd 20 cf 40 3e
       0.071619526 -0.23619498 -0.08197136 0.18829012
000220 64 0e e5 3d 5c e3 60 3d c0 7d 8b 3e 6c 20 1c be
       0.111843854 0.054904327 0.27244377 -0.15246743
000230 a6 99 c1 3c df 6b 94 3c d0 f8 6a 3e 7e 39 62 bd
       0.023632836 0.018117843 0.22946477 -0.05523061

backbone.stage2.1.branch2.1.bias f4 [12]
000000 23 02 6b 3e 01 8b 22 3e 2e fa 06 3e c1 38 74 bd
       0.22950034 0.15873338 0.13181373 -0.059624437
000010 ab b9 93 3e b4 cf 60 3e fc d0 46 3e 89 1d d5 3d
       0.2885259 0.21954232 0.19415659 0.10406024
000020 d4 23 6a 3e 05 69 9f 3e fc fe 21 3e b3 6c 5b 3e
       0.2286523 0.3113481 0.15819925 0.21428184

backbone.stage2.1.branch2.1.running_mean f4 [12]
000000 7e 49 9b 3e 96 31 b8 3d 7d 18 43 3e 5b 25 2a 3d
       0.30329508 0.08993833 0.1905231 0.04153953
000010 30 0b 43 3e bc de 72 3e ba d7 4a bc 4a 54 2f 3d
       0.19047236 0.23717779 -0.012380535 0.042804994
000020 d5 15 bb 3e 13 d9 83 3e 25 69 6c 3e bb 3e 72 3d
       0.36540094 0.25751552 0.23086984 0.059141856

backbone.stage2.1.branch2.1.running_var f4 [12]
000000 d8 3f 0a 3c 04 bf 9f 3c a9 88 ac 3c 10 42 2d 3c
       0.008438073 0.019500263 0.021061258 0.010574833
000010 3e 60 12 3d 99 c1 e5 3c 2c 45 9d 3b 7f 35 3a 3c
       0.035736315 0.028046416 0.0047995057 0.0113652935
000020 85 c2 f6 3b 57 81 d0 3b f7 fd 99 3c dd f5 0e 3c
       0.0075305128 0.0063630748 0.018797858 0.008725611

backbone.stage2.1.branch2.1.weight f4 [12]
000000 28 97 e7 3d c4 02 56 3e 98 a6 3a 3e f8 9b 77 3e
       0.11308128 0.20899493 0.18227613 0.24180591
000010 84 49 2b 3e b4 bd 0f 3e 7f 6b 0a 3e 24 c8 54 3e
       0.16727263 0.1403721 0.13517569 0.20779473
000020 b3 b8 40 3e f1 b1 c8 3d 67 54 24 3e 9f 9d 06 3e
       0.18820457 0.09799565 0.16047822 0.13146065

backbone.stage2.1.branch2.3.weight f4 [12, 1, 3, 3]
000000 e2 73 cf bd 35 c2 40 3c 6f b2 2f 3e 78 13 3e bd
       -0.10129525 0.011765053 0.17157911 -0.046405286
000010 5b fd c3 bd 0c 86 94 3e c9 d7 40 bd 30 11 bf be
       -0.09569808 0.2900852 -0.04708079 -0.373178
000020 ae 40 07 3d 1d 1a e5 bc 8f 57 81 3e c6 6a 7d bc
       0.033020668 -0.027966553 0.25262114 -0.015467351
000030 58 f2 47 bd 0a 72 dd 3e 8a a4 e1 bc 44 bf de 3c
       -0.0488151 0.43251067 -0.027544279 0.027190812
000040 c7 4e 06 be 95 4a 8f 3d 1f 61 1e 3c e6 1a 0c 3e
       -0.13115989 0.06996647 0.00966671 0.13682136
000050 8c 56 b4 3b bb 9a cb 3d 26 eb 39 bf 6d a7 0f 3e
       0.0055034813 0.09941622 -0.72624433 0.14028712
000060 a4 e8 5c 3d 0b 48 18 3e 62 fd 9c 3d 36 76 96 3c
       0.0539328 0.14871232 0.076655164 0.018366914
000070 cf 7c 27 bc 4a 51 9e 3c 97 fe 6e 3d 21 ea 10 3f
       -0.010222628 0.019325871 0.058348265 0.5660725
000080 1a 97 2f 3d 86 23 58 3b 6f 3e c4 3d 24 5d e7 3a
       0.04286871 0.0032980158 0.09582221 0.001765166
000090 88 4f 51 bd df 52 fc bd ab 98 7b bd 5d c1 ed bd
       -0.051101238 -0.12320494 -0.061424892 -0.11609147
0000a0 05 de 56 3f a4 2a f4 bd c4 91 ac bc 0b 53 23 be
       0.83932525 -0.119221956 -0.0210656 -0.15949647
0000b0 ee ca 7e bc 78 8f 0e bd 0f ef f1 be c5 22 df 3a
       -0.015551312 -0.03480479 -0.472527 0.0017023912
0000c0 5a d1 60 bd 8a 09 20 3f 13 88 ab bd 00 2e c6 b8
       -0.054887153 0.62514555 -0.083755635 -9.449944e-05
0000d0 12 f1 3a bd d8 2f 27 3d 8c a3 86 ba 3e 73 9a 3d
       -0.04564006 0.04081711 -0.001027213 0.07541512
0000e0 6d a5 37 bd 07 1e 1c be 4b 34 fa 3e f6 1a 6b be
       -0.044835497 -0.1524583 0.4886802 -0.22959504
0000f0 37 d0 aa 3b 76 62 c2 bd 98 d5 fa 3b 27 94 f6 3c
       0.0052128094 -0.09491436 0.007654857 0.030099941
000100 ab 40 00 3e 84 be 52 3c b5 75 c3 3d bd 18 c6 3e
       0.12524669 0.012862805 0.09543935 0.3869075
000110 0f 18 b5 3d ac c4 4b 3c 28 39 a5 3c 62 3d 0d 3d
       0.088424794 0.012437027 0.020168856 0.034482367
000120 e4 8b c9 3e d8 8c 93 bd 6b 55 8e be b6 d8 94 3d
       0.3936454 -0.07204598 -0.27799544 0.07267897
000130 a1 f7 2d 3e 04 a6 91 be 70 00 b7 be 16 b1 c4 3c
       0.16988994 -0.28446972 -0.3574252 0.024010222
000140 7b ae aa 3e 45 44 2f 3c db 18 a7 3e c0 77 d0 be
       0.33336243 0.010697429 0.3263615 -0.40716362
000150 ba f0 7a bc 91 ca 9f be 70 e7 9c 3e 6e 1d 83 3c
       -0.015316183 -0.31209233 0.30645323 0.016005244
000160 89 e9 05 be 0b b1 28 3e 63 09 4f bd dc 8f 53 3e
       -0.13077368 0.16473787 -0.05054606 0.20660347
000170 f6 8b 0b bd c6 50 49 be 22 18 b3 be b0 c4 58 be
       -0.034069024 -0.19659719 -0.3497935 -0.2116878
000180 ec 95 3a 3c fe 93 19 be 24 73 f7 3c 36 5e d9 bd
       0.011388283 -0.14997861 0.03020627 -0.106136724
000190 0b c6 02 be a3 b4 44 3e e7 56 10 be be 3a 68 be
       -0.1277086 0.19209532 -0.1409565 -0.22678658
0001a0 5f 0f 27 3e 22 72 a8 3c 86 50 9d 3e d1 b4 7a 3d
       0.16314457 0.020562235 0.30725497 0.061207596

backbone.stage2.1.branch2.4.bias f4 [12]
000000 3b 4f 5c b4 68 95 12 b5 cb d7 a5 34 02 18 45 b3
       -2.051792e-07 -5.4606653e-07 3.0890655e-07 -4.5889472e-08
000010 81 15 5b b4 39 cc 56 b5 73 f4 c4 34 40 e9 b9 32
       -2.0403787e-07 -8.0018395e-07 3.6685705e-07 2.1642904e-08
000020 72 88 05 b4 03 bb 95 b4 ac 65 ef b4 15 a5 15 b4
       -1.2436229e-07 -2.7889482e-07 -4.4591195e-07 -1.3936763e-07

backbone.stage2.1.branch2.4.running_mean f4 [12]
000000 78 98 16 bd 31 a7 c9 3d 36 c9 28 bc 8a c7 c8 3c
       -0.0367665 0.09846342 -0.010301879 0.02450921
000010 8f 4e 6a 3d 1e 38 a0 ba 43 b9 65 3c 30 d7 c2 3d
       0.057203826 -0.0012223755 0.014021221 0.095137
000020 39 6c 4d 3b 7b 8f 6b bc 44 b9 ef bd 8b af ab 3c
       0.0031345023 -0.01437747 -0.117052585 0.020957729

backbone.stage2.1.branch2.4.running_var f4 [12]
000000 af 84 50 3b e1 0a 84 3b ec ff 1e 3b 6c e9 85 3c
       0.0031817367 0.004029617 0.0024261428 0.016346656
000010 89 17 7f 3b b7 65 1d 3b 7e 8c 07 3b 2f 60 57 3c
       0.003892394 0.0024016926 0.0020683105 0.013145491
000020 b9 e0 e0 3b b9 53 bb 3a 49 53 4d 3c 11 a1 39 3b
       0.0068627265 0.0014291919 0.012532064 0.0028324763

backbone.stage2.1.branch2.4.weight f4 [12]
000000 2b b7 7b 3e bb d5 81 3e 69 52 78 3e d4 ce ae 3e
       0.24581592 0.25358376 0.24250187 0.34142172
000010 af 69 ad 3e 9b 99 8f 3e c4 40 55 3e 92 c4 b4 3e
       0.33869693 0.2804688 0.20825487 0.3530622
000020 14 9e 78 3e 25 31 5b 3e 55 43 d7 3e cf f6 6e 3e
       0.24279052 0.21405466 0.42043558 0.23336338

backbone.stage2.1.branch2.5.weight f4 [12, 12, 1, 1]
000000 fe 32 e5 be 3e 13 0b bd c5 7c a9 bc 36 5c 54 bc
       -0.44765466 -0.033953898 -0.020689378 -0.012961438
000010 60 78 10 3d ae 08 63 3d d3 80 40 be e7 8c 2e bd
       0.03527105 0.0554282 -0.18799143 -0.042614844
000020 5c 47 03 3e 57 6d 97 3d d8 39 73 3d ab c7 d8 3e
       0.1282019 0.07393902 0.059381336 0.42339835
000030 67 0b ab 3d 7b 9b f6 3c de 89 4a 3d c1 7a 7c bd
       0.08351784 0.030103436 0.049447887 -0.061640505
000040 2f 10 a5 3d 48 7b c3 3d 9f 7a f7 be e2 3b 05 be
       0.080597274 0.095449984 -0.4833574 -0.13011125
000050 95 2c 14 3e b5 e4 96 bd 8b 11 3e 3e 3b 8e bd bd
       0.14470132 -0.07367841 0.1856138 -0.09255644
000060 a7 19 8a 3d 1b 35 7c 3d 4e 29 07 bd 41 b4 80 3b
       0.06743174 0.061574083 -0.032998376 0.003927738
000070 a5 10 c1 3c 1f 56 02 3d c2 37 f8 3d 0c a4 c1 3a
       0.023567507 0.031820413 0.1212001 0.0014773621
000080 fb 99 0f 3f 2d cf c3 3e c5 29 5b 3a 88 4d 92 bd
       0.5609433 0.38244 0.0008360411 -0.07143694
000090 fd 49 8d 3d f6 61 3f 3e cf ae 56 bd 95 03 9a be
       0.06898878 0.18689713 -0.052412804 -0.30080858
0000a0 81 ed 82 3e 52 65 2e 3c 3d 21 3e 3d 8f 7b 1e be
       0.25571826 0.010644274 0.046418417 -0.15476821
0000b0 25 99 63 3d 35 43 2e be 28 0b 50 be 01 cc 60 3d
       0.055565972 -0.17017825 -0.20316756 0.054882053
0000c0 79 ef 12 be 0b 37 48 3d 48 07 25 be 20 bd 92 be
       -0.14349164 0.048880618 -0.16116059 -0.28659916
0000d0 e1 a3 d8 bd 00 d8 16 be 73 32 87 3c 4e f9 83 be
       -0.105781324 -0.14730835 0.016503548 -0.25776142
0000e0 83 df 1d 3b df 52 58 3d 15 75 1b 3e fa 45 2b be
       0.0024089522 0.052813407 0.15181382 -0.16725913
0000f0 b1 95 07 3d ff e4 21 bd 8b 61 12 3e 12 ca 1c bd
       0.03310174 -0.03952503 0.14295022 -0.038278647
000100 07 51 cc be 48 43 ef bd 9c 67 de 3d 86 e3 4f bd
       -0.3990557 -0.11682755 0.10859606 -0.050754093
000110 8c 3c 95 3d d9 86 95 be 4c 5e 3a be 1f 2d 9e bc
       0.07286939 -0.29204443 -0.18200034 -0.019308625
000120 83 32 9d bd a1 3e 7e bd cb 7b 8c bc b5 55 8c 3c
       -0.0767565 -0.062071446 -0.017148873 0.017130712
000130 25 c9 63 3e 26 7a f2 be 84 7e 02 bd ea 57 c5 3d
       0.222447 -0.47358817 -0.031858936 0.09635909
000140 78 3a cb bd fa 9d 27 bd 20 2a 07 3e 94 dc ed bb
       -0.099232614 -0.040922143 0.13199663 -0.007258961
000150 0b ba e9 bc 7d aa 88 be 2b 9e 66 3d 07 b3 fb be
       -0.028531095 -0.26692572 0.056303184 -0.49160025
000160 99 90 6b 3e 14 8a 50 bc 59 b8 44 bd b6 e4 81 be
       0.23004378 -0.012728233 -0.04802737 -0.25369805
000170 83 85 bf bd d0 6c 58 3c 44 00 99 ba c2 38 02 bd
       -0.09351637 0.013209537 -0.0011673053 -0.03179241
000180 32 3b 03 3b b4 ca 0b be 17 d0 f4 be 58 8d 1f be
       0.0020024297 -0.13651544 -0.4781501 -0.15581262
000190 59 5f 24 be c0 6b c5 3c 07 38 1a 3b e2 87 c1 be
       -0.16051997 0.02409923 0.002353193 -0.37798983
0001a0 00 7a 3f bd fc 7b a4 ba 78 4b cd bc 2d 98 9e bc
       -0.046747208 -0.0012549157 -0.0250604 -0.019359672
0001b0 1f 5b c7 bc 67 05 0e 3e 60 1e 2a 3e f2 c9 3d 3e
       -0.024335442 0.13869248 0.1661315 0.18534067
0001c0 55 12 53 be 4f b4 52 3e 6b 7d 33 3d 6e 44 22 be
       -0.20612462 0.20576595 0.04382078 -0.15846416
0001d0 21 e0 03 3e b5 3a 76 3c 9f 0c 8b 3e 3e 85 d4 bc
       0.12878467 0.015028645 0.27158067 -0.025942441
0001e0 fb d5 30 3d 7b 03 da 3e 70 f6 06 bd 0a 97 94 be
       0.043172818 0.4258078 -0.032949865 -0.29021484
0001f0 46 fb ff 3d d9 5d d5 bd df b7 09 bb a7 71 31 be
       0.124990985 -0.10418291 -0.0021014137 -0.17328511
000200 d1 38 09 be 47 ba 02 bc e4 a6 47 be ff ea 31 3d
       -0.1340058 -0.007978982 -0.19497257 0.043437
000210 8c 3c 8b 3d 12 03 5c 3d 0e 73 be 3b 6f 25 3e bc
       0.06798658 0.053713866 0.0058120554 -0.011605605
000220 75 fd 27 be d5 72 04 be 1d 09 12 3d ae e5 06 3e
       -0.1640528 -0.1293443 0.035653222 0.13173553
000230 53 36 8b bd d0 43 69 bd 69 b1 e4 be c5 e6 bf 3d
       -0.06797471 -0.056949437 -0.44666603 0.09370188

backbone.stage2.1.branch2.6.bias f4 [12]
000000 62 3e 2d 3e 2f c1 fa 3e ca d5 ca 3e a7 86 92 3e
       0.16918328 0.48975512 0.39616233 0.28618357
000010 aa f8 2d 3e 79 94 fb 3e d4 dc 46 3e eb 50 90 3e
       0.16989389 0.49136713 0.19420177 0.28186736
000020 54 2d 08 be 4d 0a a6 3d 23 ed 06 3f d8 b2 41 3c
       -0.13298541 0.081074335 0.5270559 0.011822425

backbone.stage2.1.branch2.6.running_mean f4 [12]
000000 bb 51 13 b4 ed 1c c2 b4 a8 7f 61 b4 76 35 0d b3
       -1.3720175e-07 -3.6156362e-07 -2.1001199e-07 -3.2877743e-08
000010 d6 c0 26 33 6f 5e e5 34 10 bc b3 34 ea 78 12 34
       3.882527e-08 4.2723283e-07 3.3478182e-07 1.3641298e-07
000020 21 0f 59 b3 3a a9 97 b4 13 a8 9d b3 07 28 b2 34
       -5.053801e-08 -2.824907e-07 -7.341455e-08 3.3184207e-07

backbone.stage2.1.branch2.6.running_var f4 [12]
000000 6a ec b9 3c 77 19 01 3d c6 8d 06 3d 6b 9e d4 3c
       0.022695739 0.031518426 0.03285005 0.025954446
000010 c4 31 da 3c a8 fc 19 3d af 41 99 3c b1 cd 47 3d
       0.026635058 0.037594467 0.018708078 0.048780147
000020 47 13 c9 3c cd 32 cd 3c 9e 52 05 3d f7 4d 64 3d
       0.024545325 0.025048638 0.032549493 0.055738416

backbone.stage2.1.branch2.6.weight f4 [12]
000000 7c 79 2a 3e 98 aa 31 3e f0 82 0c 3e 50 fb 47 3e
       0.16647905 0.17350233 0.13721824 0.19529462
000010 3c c7 7d 3e dc d5 3a 3e 23 0f 3d 3e 13 ed 84 3e
       0.24783033 0.18245643 0.18462805 0.25962123
000020 fb d2 87 3e 39 ab 4b 3e 3f c7 2b 3e c6 91 a1 3e
       0.26528153 0.19889535 0.16775225 0.3155653
